…
,{"stream_name":"stdout","time":113.699454355,"data":"    (1): Tanh()\n"}
,{"stream_name":"stdout","time":113.699456813,"data":"  )\n"}
,{"stream_name":"stdout","time":113.699459154,"data":")\n"}
,{"stream_name":"stdout","time":114.076070105,"data":"----------------------------------------------------------------\n"}
,{"stream_name":"stdout","time":114.076106657,"data":"        Layer (type)               Output Shape         Param #\n"}
,{"stream_name":"stdout","time":114.076132254,"data":"================================================================\n"}
,{"stream_name":"stdout","time":114.076136936,"data":"   ConvTranspose2d-1            [-1, 512, 4, 4]       1,048,576\n"}
,{"stream_name":"stdout","time":114.076140933,"data":"       BatchNorm2d-2            [-1, 512, 4, 4]           1,024\n"}
,{"stream_name":"stdout","time":114.076145037,"data":"              ReLU-3            [-1, 512, 4, 4]               0\n"}
,{"stream_name":"stdout","time":114.07614896,"data":"   ConvTranspose2d-4            [-1, 256, 8, 8]       2,097,152\n"}
,{"stream_name":"stdout","time":114.076152777,"data":"       BatchNorm2d-5            [-1, 256, 8, 8]             512\n"}
,{"stream_name":"stdout","time":114.076156853,"data":"              ReLU-6            [-1, 256, 8, 8]               0\n"}
,{"stream_name":"stdout","time":114.07616106,"data":"   ConvTranspose2d-7          [-1, 128, 16, 16]         524,288\n"}
,{"stream_name":"stdout","time":114.07616467,"data":"       BatchNorm2d-8          [-1, 128, 16, 16]             256\n"}
,{"stream_name":"stdout","time":114.076172117,"data":"              ReLU-9          [-1, 128, 16, 16]               0\n"}
,{"stream_name":"stdout","time":114.076176432,"data":"           Conv2d-10           [-1, 16, 16, 16]           2,064\n"}
,{"stream_name":"stdout","time":114.076180073,"data":"           Conv2d-11           [-1, 16, 16, 16]           2,064\n"}
,{"stream_name":"stdout","time":114.07618392,"data":"           Conv2d-12          [-1, 128, 16, 16]          16,512\n"}
,{"stream_name":"stdout","time":114.076187582,"data":"    SelfAttention-13          [-1, 128, 16, 16]               0\n"}
,{"stream_name":"stdout","time":114.076192767,"data":"  ConvTranspose2d-14           [-1, 64, 32, 32]         131,072\n"}
,{"stream_name":"stdout","time":114.076195971,"data":"      BatchNorm2d-15           [-1, 64, 32, 32]             128\n"}
,{"stream_name":"stdout","time":114.076198599,"data":"             ReLU-16           [-1, 64, 32, 32]               0\n"}
,{"stream_name":"stdout","time":114.076201175,"data":"  ConvTranspose2d-17            [-1, 1, 64, 64]           1,024\n"}
,{"stream_name":"stdout","time":114.076203766,"data":"             Tanh-18            [-1, 1, 64, 64]               0\n"}
,{"stream_name":"stdout","time":114.076206435,"data":"================================================================\n"}
,{"stream_name":"stdout","time":114.076209935,"data":"Total params: 3,824,672\n"}
,{"stream_name":"stdout","time":114.076213616,"data":"Trainable params: 3,824,672\n"}
,{"stream_name":"stdout","time":114.076218903,"data":"Non-trainable params: 0\n"}
,{"stream_name":"stdout","time":114.076222366,"data":"----------------------------------------------------------------\n"}
…
,{"stream_name":"stdout","time":114.336175492,"data":"    (1): Sigmoid()\n"}
,{"stream_name":"stdout","time":114.336179339,"data":"  )\n"}
,{"stream_name":"stdout","time":114.336182804,"data":")\n"}
,{"stream_name":"stdout","time":114.589209059,"data":"----------------------------------------------------------------\n"}
,{"stream_name":"stdout","time":114.589261394,"data":"        Layer (type)               Output Shape         Param #\n"}
,{"stream_name":"stdout","time":114.589268933,"data":"================================================================\n"}
,{"stream_name":"stdout","time":114.589274113,"data":"            Conv2d-1           [-1, 64, 32, 32]           1,024\n"}
,{"stream_name":"stdout","time":114.589279422,"data":"         LeakyReLU-2           [-1, 64, 32, 32]               0\n"}
,{"stream_name":"stdout","time":114.589284714,"data":"            Conv2d-3          [-1, 128, 16, 16]         131,072\n"}
,{"stream_name":"stdout","time":114.589290021,"data":"       BatchNorm2d-4          [-1, 128, 16, 16]             256\n"}
,{"stream_name":"stdout","time":114.589295403,"data":"         LeakyReLU-5          [-1, 128, 16, 16]               0\n"}
,{"stream_name":"stdout","time":114.589327968,"data":"            Conv2d-6           [-1, 16, 16, 16]           2,064\n"}
,{"stream_name":"stdout","time":114.589333586,"data":"            Conv2d-7           [-1, 16, 16, 16]           2,064\n"}
,{"stream_name":"stdout","time":114.589337382,"data":"            Conv2d-8          [-1, 128, 16, 16]          16,512\n"}
,{"stream_name":"stdout","time":114.589341088,"data":"     SelfAttention-9          [-1, 128, 16, 16]               0\n"}
,{"stream_name":"stdout","time":114.589345155,"data":"           Conv2d-10            [-1, 256, 8, 8]         524,288\n"}
,{"stream_name":"stdout","time":114.589350923,"data":"      BatchNorm2d-11            [-1, 256, 8, 8]             512\n"}
,{"stream_name":"stdout","time":114.589354798,"data":"        LeakyReLU-12            [-1, 256, 8, 8]               0\n"}
,{"stream_name":"stdout","time":114.5893587,"data":"           Conv2d-13            [-1, 512, 4, 4]       2,097,152\n"}
,{"stream_name":"stdout","time":114.589362447,"data":"      BatchNorm2d-14            [-1, 512, 4, 4]           1,024\n"}
,{"stream_name":"stdout","time":114.589366341,"data":"        LeakyReLU-15            [-1, 512, 4, 4]               0\n"}
,{"stream_name":"stdout","time":114.589369871,"data":"           Conv2d-16              [-1, 1, 1, 1]           8,192\n"}
,{"stream_name":"stdout","time":114.589373303,"data":"          Sigmoid-17              [-1, 1, 1, 1]               0\n"}
,{"stream_name":"stdout","time":114.589377119,"data":"================================================================\n"}
,{"stream_name":"stdout","time":114.589380765,"data":"Total params: 2,784,160\n"}
,{"stream_name":"stdout","time":114.589384352,"data":"Trainable params: 2,784,160\n"}
,{"stream_name":"stdout","time":114.589387976,"data":"Non-trainable params: 0\n"}
,{"stream_name":"stdout","time":114.589391257,"data":"----------------------------------------------------------------\n"}
…
